…
physical_device_desc: "device: 2, name: GeForce GTX TITAN X, pci bus id: 0000:82:00.0, compute capability: 5.2"
, name: "/device:GPU:3"
device_type: "GPU"
memory_limit: 2421358592
locality {
  bus_id: 2
  numa_node: 1
  links {
    link {
      device_id: 2
      type: "StreamExecutor"
      strength: 1
    }
  }
}
incarnation: 7810493206943392654
physical_device_desc: "device: 3, name: GeForce GTX TITAN X, pci bus id: 0000:83:00.0, compute capability: 5.2"
]
Model: "sequential"
_________________________________________________________________
Layer (type)                 Output Shape              Param #   
=================================================================
conv2d (Conv2D)              (None, 32, 32, 128)       3584      
_________________________________________________________________
conv2d_1 (Conv2D)            (None, 30, 30, 128)       147584    
_________________________________________________________________
max_pooling2d (MaxPooling2D) (None, 15, 15, 128)       0         
_________________________________________________________________
dropout (Dropout)            (None, 15, 15, 128)       0         
_________________________________________________________________
conv2d_2 (Conv2D)            (None, 15, 15, 256)       295168    
_________________________________________________________________
conv2d_3 (Conv2D)            (None, 13, 13, 256)       590080    
_________________________________________________________________
max_pooling2d_1 (MaxPooling2 (None, 6, 6, 256)         0         
_________________________________________________________________
dropout_1 (Dropout)          (None, 6, 6, 256)         0         
_________________________________________________________________
conv2d_4 (Conv2D)            (None, 6, 6, 512)         1180160   
_________________________________________________________________
conv2d_5 (Conv2D)            (None, 4, 4, 512)         2359808   
_________________________________________________________________
max_pooling2d_2 (MaxPooling2 (None, 2, 2, 512)         0         
_________________________________________________________________
dropout_2 (Dropout)          (None, 2, 2, 512)         0         
_________________________________________________________________
flatten (Flatten)            (None, 2048)              0         
_________________________________________________________________
dense (Dense)                (None, 1000)              2049000   
_________________________________________________________________
dropout_3 (Dropout)          (None, 1000)              0         
_________________________________________________________________
dense_1 (Dense)              (None, 1000)              1001000   
_________________________________________________________________
dropout_4 (Dropout)          (None, 1000)              0         
_________________________________________________________________
dense_2 (Dense)              (None, 100)               100100    
=================================================================
Total params: 7,726,484
Trainable params: 7,726,484
Non-trainable params: 0
_________________________________________________________________
Epoch 1/50
313/313 - 96s - loss: 4.5627 - accuracy: 0.0126 - val_loss: 4.4776 - val_accuracy: 0.0242
Epoch 2/50
313/313 - 46s - loss: 4.3533 - accuracy: 0.0287 - val_loss: 4.2234 - val_accuracy: 0.0470
…
